mnist_p3/part2-mnist/mnist_model_fully_connected.pt (torch, 409559 bytes, 4 tensors)

weight f4 [128, 784]
0.029524539 -0.0065959916 -0.03499748 0.010275181 0.03306799 0.03104734 -0.035178065 0.03214631
0.010838918 -0.032885548 0.034286972 0.0019782968 0.0048951693 0.013756886 0.010713186 -0.021344684
0.020449877 0.025263056 -0.018410351 0.017258234 -0.00635048 -0.023161229 -0.01373045 -0.0041809976
-0.01964582 0.020075407 0.021033224 -0.016925652 -0.022170514 6.366521e-06 0.007818669 0.021394163
-0.0046821367 -0.022876784 -9.029731e-05 0.027147915 0.01415344 0.030363899 0.0031574469 -0.021934675
-0.00595167 -0.033171214 0.032361448 0.0039644577 0.018682955 0.0073910914 -0.018517146 0.002877701
0.010209549 -0.03466889 -0.024360577 0.034912597 0.017784663 0.017311245 -0.01441285 -0.03361085
-0.014531963 -0.022142727 -0.013658682 0.035193298 0.02654449 0.024702681 -0.02946196 0.0145524405
-0.019799676 -0.0048027877 0.04857821 0.059517767 0.050983332 -0.0034062797 -0.017982334 -0.017788714
-0.07572725 -0.07393501 -0.066885434 -0.0044449037 0.0067722965 0.011969524 -0.0027941058 0.0058120824
0.008726824 -0.0247143 0.0076174624 -0.009508537 0.0050391294 0.00898996 -0.029848415 0.032592308
0.03148418 -0.022269076 0.0025164199 0.0444463 0.027570158 0.03193796 0.032927766 0.11945226
-0.15359834 -0.23873386 -0.23806253 -0.15009929 -0.3487054 -0.2197428 -0.15796193 -0.055394866
-0.10807173 -0.10521948 -0.03646619 -0.018075671 -0.007307559 -0.020269655 -0.018476062 -0.027034437
-0.035658382 -0.024011761 0.0190778 0.006956525 -0.017594935 0.059417684 0.08468163 0.1277245
0.012003997 0.061847694 -0.035300672 -0.24355297 -0.26049182 -1.6848635e-05 -0.151287 -0.4671387
-0.5302112 -0.286272 -0.1259994 -0.20925729 -0.19773571 -0.16295479 -0.19141194 -0.086695455
-0.013396719 -0.023278618 -8.8811685e-05 0.031888787 0.009938613 -0.02930844 0.013334371 0.0041049584
0.018542161 0.027116403 0.017327353 -0.11347537 0.10560931 -0.01874323 -0.50457305 -0.27830574
-0.3395717 -0.2113492 0.18999472 0.40214723 0.22282466 -0.019260712 -0.26313138 -0.4428135
-0.35652155 -0.05554605 0.111291565 -0.043219283 -0.04577759 -0.022092402 0.03826816 -0.022965122
-0.034922957 -0.022790276 0.006242006 0.06037114 0.09702535 0.05958342 -0.4111489 -0.60743886
-0.02234643 0.4240708 0.32283688 0.22458875 0.15410751 -0.097358644 -0.12751043 -0.018184103
0.19198936 0.25684655 -0.7221264 -0.44810376 -0.6316747 -0.045686472 -0.027394438 -0.040861856
-0.043779768 -0.024807742 -0.0042738123 -0.0050161383 0.004593357 -0.016062116 0.0060018604 0.15674481
0.23887224 0.009034879 -0.360172 -0.21270198 -0.12165917 0.3143492 0.25572014 -0.33519915
-0.03328886 0.04216208 -0.4523783 -0.52445525 -0.14145632 0.11392891 0.35915428 0.21530291
0.13843396 0.22754608 0.13195266 -0.017625356 -0.10478782 -0.051905245 -0.030287957 -0.01557597
-0.014580794 -0.0099358 0.051113915 0.1293426 0.47802812 0.16972645 -0.19241989 0.40089357
0.115046255 -0.06573736 0.6243279 -0.26804298 -0.6499394 0.024787536 0.90487623 0.59262204
0.2449403 0.079938695 0.31639475 0.03505943 -0.06380356 -0.14641246 0.2344895 0.25134972
-0.0449857 -0.067851745 -0.00552206 -0.022727298 -0.010386502 -0.01051578 0.016140182 0.11407703
00000000: 72dd f13c 3023 d8bb 8559 0fbd 3c59 283c
00000010: 4d72 073d fe56 fe3c e016 10bd d9ab 033d
00000020: b895 313c ffb2 06bd 7f70 0c3d 50a6 013b
00000030: a867 a03b 9064 613c 5c86 2f3c 0cdb aebc
00000040: 8086 a73c 78f4 ce3c 4ed1 96bc 2461 8d3c
00000050: b017 d0bb 9ebc bdbc aef5 60bc c000 89bb
00000060: 45f0 a0bc 2e75 a43c de4d ac3c aaa7 8abc
00000070: f09e b5bc 00a0 d536 e019 003c d042 af3c
00000080: 9c6c 99bb 1868 bbbc 005e bdb8 4e65 de3c
00000090: d4e3 673c b6bd f83c 2bed 4e3b 59b0 b3bc
000000a0: 3a06 c3bb 8ade 07bd 708d 043d 48e8 813b
000000b0: ff0c 993c f830 f23b 45b1 97bc d097 3c3b
000000c0: f445 273c f700 0ebd d58f c7bc 8300 0f3d
000000d0: 24b1 913c 50d0 8d3c e023 6cbc 88ab 09bd
000000e0: 7817 6ebc aa64 b5bc aac8 5fbc d926 103d
000000f0: d573 d93c 475d ca3c 355a f1bc 5c6d 6e3c
00000100: ee32 a2bc b460 9dbb f2f9 463d e7c8 733d
00000110: e6d3 503d e43b 5fbb b04f 93bc a3b9 91bc
00000120: e316 9bbd 3d6b 97bd 3bfb 88bd 8ea6 91bb
00000130: 24ea dd3b d31b 443c 511d 37bb 4873 be3b
00000140: f4fa 0e3c a575 cabc e89b f93b b2c9 1bbc
00000150: 481f a53b a04a 133c aa84 f4bc 837f 053d
00000160: 8ef5 003d a36d b6bc 85ea 243b 530d 363d
00000170: d0da e13c 61d1 023d 44df 063d 63a3 f43d
00000180: e248 1dbe a676 74be aac6 73be a1b3 19be
00000190: 8489 b2be 4204 61be c6c0 21be bae5 62bd
000001a0: b654 ddbd 507d d7bd 925d 15bd 6e13 94bc
000001b0: 3f74 efbb 8c0c a6bc 1c5b 97bc 5377 ddbc
000001c0: 860e 12bd 50b4 c4bc 0c49 9c3c 90f3 e33b
000001d0: 4123 90bc f55f 733d 906d ad3d 36ca 023e
000001e0: 6aac 443c 0254 7d3d 7097 10bd f365 79be
000001f0: 2f5f 85be 2b56 8db7 fbea 1abe ce2c efbe
00000200: ecbb 07bf 3e92 92be fd05 01be 8b47 56be
00000210: 3b7b 4abe 9fdd 26be 7e01 44be 638d b1bd
00000220: e97d 5bbc cdb2 bebc 6940 bab8 d19d 023d
00000230: 90d5 223c 4118 f0bc 6878 5a3c e382 863b
00000240: bbe5 973c 3823 de3c 18f2 8d3c c665 e8bd
00000250: b249 d83d 678b 99bc b32b 01bf 177e 8ebe
00000260: 58dc adbe ed6b 58be fa8d 423e 3ee6 cd3e
00000270: 262c 643e a4c8 9dbc 28b9 86be 73b8 e2be
00000280: fe89 b6be 4184 63bd d5ec e33d b406 31bd
00000290: 4881 3bbd 20fb b4bc 13bf 1c3d 5a21 bcbc
000002a0: 600b 0fbd acb2 babc be89 cc3b ba47 773d
000002b0: 3ab5 c63d bf0d 743d 1c82 d2be 1d81 1bbf
000002c0: dc0f b7bc cf1f d93e e04a a53e 98fa 653e
000002d0: 5cce 1d3e f863 c7bd 1892 02be d4f6 94bc
000002e0: dc98 443e 6481 833e 47dd 38bf db6d e5be
000002f0: 6fb5 21bf bd21 3bbd 4d6a e0bc c35e 27bd
00000300: 6a52 33bd 9b39 cbbc 560b 8cbb 6b5e a4bb
00000310: df83 963b b394 83bc 41ab c43b b681 203e
00000320: ed9a 743e 0707 143c 7768 b8be 8cce 59be
00000330: 7128 f9bd 61f2 a03e c0ed 823e 399f abbe
00000340: e659 08bd 25b2 2c3d 219e e7be b342 06bf
00000350: edd9 10be 8f53 e93d 12e3 b73e 5e78 5c3e
00000360: a2c1 0d3e d701 693e 991e 073e 0d63 90bc
00000370: ff9a d6bd 989a 54bd 731e f8bc 5a32 7fbc
00000380: 48e4 6ebc c4c9 22bc d35c 513d 6372 043e
00000390: 1ac0 f43e c5cc 2d3e b809 45be ec41 cd3e
000003a0: 5f9d eb3d 4fa1 86bd f4d3 1f3f ee3c 89be
000003b0: 6e62 26bf 3b0f cb3c f8a5 673f 14b6 173f
000003c0: a1d1 7a3e e6b6 a33d 7efe a13e 7a9a 0f3d
000003d0: 71ab 82bd 26ed 15be 041e 703e e9b0 803e
000003e0: ed42 38bd dbf5 8abd 66f2 b4bb 992e babc
000003f0: 262c 2abc 614a 2cbc 6a38 843c 38a1 e93d

bias f4 [128]
-0.9296659 -0.18830237 -0.6073634 -0.60088015 0.057948623 1.0457382 -0.09625279 0.45339137
-0.41603544 -0.60956955 -0.585062 0.60358375 -0.43149722 -0.017686097 -0.34927648 -0.75907826
-0.13843517 -0.12261754 -0.20685862 0.06300776 -0.07240685 -1.256523 -0.76308906 -0.9236993
-0.6899813 -0.24350806 -0.40133741 -0.15270893 -0.57208645 0.46171355 0.22125658 -0.6447577
0.00079589954 0.13986926 -1.099311 -0.3128675 -0.09828181 -0.33911297 -0.42102125 -1.6141033
0.18131353 -0.124954976 -0.95476246 0.31891242 -0.3208891 0.06813459 -0.18424833 -0.59853077
-0.025815923 -2.2494977 -0.8211697 -0.017257245 0.14231405 -1.105615 -0.0015884278 0.47720572
-0.9786664 0.0036436338 -0.39996195 0.009635577 -0.9158822 -0.1369124 -0.081235334 -0.051326036
-0.3561002 -0.113346264 0.26809123 -1.0506092 0.65559214 -0.36401805 0.2946509 -0.7835491
-0.31055716 -1.0184101 0.38093057 0.05335022 -0.43228802 -0.87811 -0.29673603 -0.36122465
0.10296256 -1.0534891 -1.0326807 0.30053586 0.0041347505 -0.7326284 0.2442489 -0.4114868
-1.3169096 -0.39145368 -1.9811568 0.039494738 -0.65966946 -0.76305705 0.010369312 -0.2787673
-0.44409233 -0.49820182 -0.78134125 -0.54934907 -0.006039646 -0.7741612 -0.5615885 -0.55346215
-0.62522864 0.05072589 -0.0034117426 -0.5590321 -0.019524824 0.1486956 -0.21316713 -0.46530932
-0.2649055 -1.2123066 0.852112 -0.33457112 -0.17593846 -0.27093616 -0.31256872 -1.0781558
0.018699368 -0.034619823 0.20863493 -1.8123045 -1.817055 -0.16042073 -0.9736582 0.00017185183
00000000: 96fe 6dbf 56d2 40be 2b7c 1bbf 48d3 19bf
00000010: 895b 6d3d c0da 853f 2f20 c5bd ea22 e83e
00000020: 9902 d5be c00c 1cbf a0c6 15bf 7784 1a3f
00000030: 34ed dcbe 6fe2 90bc 5ed4 b2be f452 42bf
00000040: f3c1 0dbe e81e fbbd bfd2 53be 360a 813d
00000050: 0b4a 94bd bfd5 a0bf ce59 43bf 8f77 6cbf
00000060: 9da2 30bf 2d5a 79be 197c cdbe bb5f 1cbe
00000070: 4274 12bf b865 ec3e 1691 623e d70e 25bf
00000080: eaa3 503a e339 0f3e 39b6 8cbf 2b30 a0be
00000090: f947 c9bd 37a0 adbe 1990 d7be f09a cebf
000000a0: 41aa 393e 65e8 ffbd 506b 74bf 7d48 a33e
000000b0: 934b a4be 268a 8b3d 98ab 3cbe 5039 19bf
000000c0: ea7b d3bc c5f7 0fc0 2d38 52bf 115f 8dbc
000000d0: c6ba 113e cb84 8dbf cb32 d0ba 4f54 f43e
000000e0: e289 7abf 08ca 6e3b d0c7 ccbe 8ade 1d3c
000000f0: 4177 6abf c432 0cbe b65e a6bd 403b 52bd
00000100: c452 b6be 1622 e8bd 4143 893e 5d7a 86bf
00000110: e3d4 273f 9360 babe 7cdc 963e ac96 48bf
00000120: 5901 9fbe 435b 82bf 5509 c33e c385 5a3d
00000130: db54 ddbe d1cb 60bf c9ed 97be 70f2 b8be
00000140: 09de d23d bbd8 86bf e22e 84bf d6df 993e
00000150: cd7c 873b 898d 3bbf 621c 7a3e 66ae d2be
00000160: 7e90 a8bf 9e6c c8be 8c96 fdbf 3cc5 213d
00000170: 19e0 28bf b557 43bf 0ce4 293c 96ba 8ebe
00000180: 1260 e3be 4f14 ffbe fb05 48bf 24a2 0cbf
00000190: 39e8 c5bb 6e2f 46bf 44c4 0fbf b2af 0dbf
000001a0: fc0e 20bf f3c5 4f3d 8b97 5fbb ba1c 0fbf
000001b0: 86f2 9fbc a943 183e 7c48 5abe 063d eebe
000001c0: b2a1 87be dd2c 9bbf 0324 5a3f e84c abbe
000001d0: 3629 34be 25b8 8abe 0209 a0be 0201 8abf
000001e0: 6b2f 993c 84cd 0dbd 65a4 553e 98f9 e7bf
000001f0: 4295 e8bf 5545 24be aa41 79bf 2033 3439

weight f4 [10, 128]
-1.1800545 0.004254115 -0.15964977 -0.8028013 0.35515064 -0.26320785 -0.3346293 -0.82715154
-0.3605681 -0.88303316 -0.37038118 -0.07528575 1.1894555 -0.011442726 -0.11804916 -0.4389292
0.029131142 -0.080266155 -0.5951346 -0.1434611 0.54498065 1.4814541 -0.9805086 -1.4146763
-0.41507325 -0.008357691 0.5047339 -0.11289021 -1.1933675 0.36378014 1.2187715 0.48958087
1.3365053 0.095763765 0.7411186 -0.55283153 0.85859686 1.4892749 1.2505548 -1.196863
-0.0046582823 0.013524826 -1.3973988 -0.83549494 -0.29690796 0.1222785 0.22779313 0.07237506
-0.02134984 1.0827421 -0.1157535 -0.55536383 -0.13771667 -0.73809576 0.056847285 0.9251548
0.76541257 0.261638 0.58843607 -0.24703525 0.41259307 0.5311519 0.17887576 0.04296634
0.38835636 -0.5351518 0.42487943 -0.42245075 0.9650231 -0.6123843 -0.19990726 -0.28290164
0.09916023 1.3823682 -0.7057202 -0.28609625 0.80428416 0.6496184 -0.055058848 -0.4138448
-1.0682977 0.8460504 -0.19445093 -0.85638654 -0.03398877 -0.051087346 0.06955396 -0.09552158
0.40377364 0.966334 -0.5815165 1.1624444 0.44130704 -0.7849532 -0.05666249 0.2719052
0.16671878 -0.4514755 0.9760784 0.24371111 0.0036875487 -0.9592806 0.49681035 -0.4604167
-1.2241783 -0.93809813 -0.012739901 -0.647583 -0.35629585 -1.0467027 -0.14730509 -0.9142084
-0.85224175 -0.7316317 -0.042055536 -0.39382383 -0.23072308 -0.09882737 -0.034195878 -0.7675418
-0.09569157 -0.33676916 -0.31712985 -0.3192428 -0.28828225 -0.42315954 -0.53018105 -0.08485342
0.8052386 -0.08398214 0.81312054 -0.15899664 -0.19765288 0.8662996 0.038838755 -0.4731868
-0.15669222 -0.5174367 0.452589 0.05427101 0.56972986 0.050138514 -0.1970272 -0.46614987
0.2313743 1.2063388 -0.11342793 0.39880985 -0.42383957 -1.047082 0.3645221 1.0622226
0.3285671 0.2218153 -0.09425028 0.30712613 0.903113 1.2073852 0.40560502 -0.3932299
-0.7170806 1.1965191 -0.5385612 0.27685395 -0.639911 -0.28411174 -0.36876124 0.19122784
0.020182554 0.49867395 -0.54052544 0.91832185 -0.15328908 -0.025708893 -0.20921567 -0.13040651
0.02303626 -0.13498938 0.87689525 -0.3086544 -0.35244492 0.32448763 0.008039143 0.5833976
-0.30218744 -0.03790612 -1.1441225 0.7150841 -0.16764273 -0.94670063 0.032820407 -0.014680119
-0.12565985 0.832415 -0.75772953 -0.26658764 -0.46195307 0.26799077 0.6451805 -0.512716
-0.29984105 0.12514204 -0.54000455 1.4826591 -0.2590189 -0.5189197 0.657821 -1.0446122
1.388068 -0.35591862 0.29507813 -0.51374185 -0.05246318 0.40099397 0.20512106 -0.14773642
1.1532738 -0.5333475 0.73173815 -0.4036814 -0.34820047 -0.35856324 -0.057204857 0.46651572
-0.776746 -0.01488578 -0.92512363 -0.8511567 0.034812693 0.6397707 -0.19336064 1.0502775
0.52149713 0.99336666 0.0076484834 0.2279041 -0.28170037 0.118684135 -0.016694942 -0.6921873
0.545611 0.085998535 -0.15063004 0.4384604 0.05218765 -1.0428127 -0.20989306 0.9190123
-0.04613292 -0.50124276 0.18754354 0.081502885 0.6245689 -0.1581988 0.10576127 0.25850123
00000000: 070c 97bf 1a66 8b3b 3b7b 23be 6384 4dbf
00000010: 4ed6 b53e 2ec3 86be 8854 abbe 34c0 53bf
00000020: 629c b8be 760e 62bf 9aa2 bdbe 6a2f 9abd
00000030: 1440 983f 457a 3bbc c2c3 f1bd 54bb e0be
00000040: 6fa4 ee3c 9562 a4bd be5a 18bf 77e7 12be
00000050: da83 0b3f 4aa0 bd3f 9d02 7bbf 1d14 b5bf
00000060: 7b84 d4be b2ee 08bc 3e36 013f fb32 e7bd
00000070: 44c0 98bf 6441 ba3e b400 9c3f 58aa fa3e
00000080: 9b12 ab3f cb1f c43d f3b9 3d3f 5e86 0dbf
00000090: 01cd 5b3f 8fa0 be3f 2e12 a03f cf32 99bf
000000a0: 81a4 98bb 3b97 5d3c f7dd b2bf ffe2 55bf
000000b0: 5204 98be 266d fa3d 9a42 693e 6039 943d
000000c0: dce5 aebc 4b97 8a3f 2c10 edbd 532c 0ebf
000000d0: 9905 0dbe d8f3 3cbf b3d8 683d f2d6 6c3f
000000e0: 14f2 433f 6af5 853e bfa3 163f cff6 7cbe
000000f0: 663f d33e 92f9 073f 352b 373e 79fd 2f3d
00000100: a5d6 c63e b5ff 08bf cc89 d93e 774b d8be
00000110: c10b 773f 38c5 1cbf 7db4 4cbe 7cd8 90be
00000120: 8514 cb3d 71f1 b03f 14aa 34bf 357b 92be
00000130: 91e5 4d3f 644d 263f 6385 61bd 77e3 d3be
00000140: fbbd 88bf c296 583f 251e 47be 263c 5bbf
00000150: cf37 0bbd f740 51bd 4e72 8e3d d1a0 c3bd
00000160: 6bbb ce3e aa61 773f 44de 14bf faca 943f
00000170: fff2 e13e b1f2 48bf ed16 68bd 2937 8b3e
00000180: 54b8 2a3e cc27 e7be 46e0 793f 688f 793e
00000190: cdaa 713b 6a93 75bf ed5d fe3e bdbb ebbe
000001a0: e0b1 9cbf 3327 70bf 05bb 50bc 00c8 25bf
000001b0: 696c b6be 5bfa 85bf 25d7 16be 9009 6abf
000001c0: 842c 5abf 374c 3bbf 6d42 2cbd 47a3 c9be
000001d0: ac42 6cbe 0166 cabd fa10 0cbd 9f7d 44bf
000001e0: f1f9 c3bd 026d acbe d85e a2be cb73 a3be
000001f0: bb99 93be 5ea8 d8be f2b9 07bf a1c7 adbd
00000200: 1e24 4e3f d4fe abbd ab28 503f 04d0 22be
00000210: 8465 4abe d0c5 5d3f 6315 1f3d 8a45 f2be
00000220: ed73 20be bb76 04bf bfb9 e73e 474b 5e3d
00000230: d1d9 113f 0b5e 4d3d 80c1 49be 32ab eebe
00000240: 62ed 6c3e 4f69 9a3f e74c e8bd ce30 cc3e
00000250: 8001 d9be c806 86bf a4a2 ba3e e9f6 873f
00000260: f239 a83e 8d23 633e 4a06 c1bd a33f 9d3e
00000270: 6a32 673f 998b 9a3f 76ab cf3e 6e55 c9be
00000280: 9892 37bf 8a27 993f 26df 09bf cdbf 8d3e
00000290: 35d1 23bf 1877 91be 46ce bcbe 3bd1 433e
000002a0: e255 a53c 3152 ff3e e05f 0abf 2417 6b3f
000002b0: d0f7 1cbe 759b d2bc a23c 56be 4989 05be
000002c0: 8ab6 bc3c a83a 0abe 357c 603f f307 9ebe
000002d0: a973 b4be 3e23 a63e 9cb6 033c 8c59 153f
000002e0: 50b8 9abe 7343 1bbd 9b72 92bf c00f 373f
000002f0: 89aa 2bbe f95a 72bf b16e 063d e284 70bc
00000300: faac 00be 2619 553f 90fa 41bf 2d7e 88be
00000310: 1d85 ecbe 1636 893e 8d2a 253f 5b41 03bf
00000320: c484 99be 3c25 003e bd3d 0abf c6c7 bd3f
00000330: 209e 84be ecd7 04bf f566 283f dab5 85bf
00000340: 36ac b13f f73a b6be 7b14 973e 9684 03bf
00000350: a2e3 56bd 154f cd3e 410b 523e 3748 17be
00000360: 7a9e 933f 7689 08bf 3153 3b3f 54af cebe
00000370: 5547 b2be 9a95 b7be a44f 6abd 26db ee3e
00000380: d3d8 46bf 7de3 73bc e7d4 6cbf 68e5 59bf
00000390: c197 0e3d 03c8 233f 5500 46be 7e6f 863f
000003a0: d680 053f 474d 7e3f 21a0 fa3b b15f 693e
000003b0: 083b 90be ab10 f33d d5c3 88bc 3033 31bf
000003c0: 2aad 0b3f 0020 b03d c33e 1abe e27d e03e
000003d0: b8c2 553d e37a 85bf 35ee 56be 6444 6b3f
000003e0: dff5 3cbd 7251 00bf 6a0b 403e fcea a63d
000003f0: bfe3 1f3f defe 21be 5d99 d83d 465a 843e

bias f4 [10]
1.4104841 -1.818807 -0.16428617 0.5810642 -1.2273223 -1.3462971 -1.0344496 -2.5665066
5.1856165 1.1902759
00000000: be8a b43f abce e8bf a23a 28be a0c0 143f
00000010: e618 9dbf 7753 acbf d868 84bf a541 24c0
00000020: 92f0 a540 f65a 983f
