mnist/part2-mnist/mnist_model_fully_connected.pt (torch, 34263 bytes, 4 tensors)

weight f4 [10, 784]
0.029524539 -0.0065959916 -0.03499748 0.010275181 0.03306799 0.03104734 -0.035178065 0.03214631
0.010838918 -0.032885548 0.034286972 0.0019782968 0.0064546783 0.017100679 0.010634186 -0.021347977
0.020449877 0.025263056 -0.018410351 0.017258234 -0.00635048 -0.023161229 -0.01373045 -0.0041809976
-0.01964582 0.020075407 0.021033224 -0.016925652 -0.022170514 6.366521e-06 0.007818669 0.021394163
-0.0046787 -0.02284176 0.0062181307 0.043511994 0.05319457 0.0442668 0.018608622 -0.0034422004
0.022662356 0.005074623 0.04719524 -0.004343425 -0.052712735 0.012248203 0.010665061 0.025829647
0.0202131 -0.029256009 -0.02030071 0.036302935 0.017784663 0.017311245 -0.01441285 -0.03361085
-0.014531963 -0.022142727 -0.013657575 0.031976003 0.027371544 0.025329607 -0.0046283663 0.084451325
0.06978458 0.038302626 0.10128255 0.019181907 0.055972666 0.07637821 0.037137587 0.057047103
0.022498941 0.032081727 0.06668895 0.09649442 0.07931313 0.06712834 0.037414156 0.013382624
-0.035344668 -0.056061532 0.0076174624 -0.009508537 0.0050391294 0.00898996 -0.029846916 0.023414584
0.036501266 -0.03031796 0.06524568 0.115834184 0.1156688 0.040254187 0.038305316 0.013118424
-0.11887428 -0.049282767 -0.07233408 -0.00029458673 -0.10253575 0.061563756 0.2422406 0.16826868
0.05281155 0.1302869 0.17267221 0.107894756 -0.017324325 -0.07124413 -0.018048363 -0.027034437
-0.035658382 -0.024015712 0.019216731 0.009014393 -0.007377931 0.04291597 -0.039138447 -0.03431344
-0.041046407 -0.12282241 -0.16134803 -0.06847552 -0.10504889 -0.05699844 -0.1441027 -0.1416346
-0.02788275 0.068725765 0.035381548 0.12895964 0.18713965 0.16343544 0.29157078 0.29928905
0.08008119 -0.03869848 0.010525094 0.040337723 0.009938613 -0.02930844 0.0137691805 -0.015657417
-0.030439775 -0.041193705 -0.09225795 -0.06647228 0.01367695 -0.03663483 -0.07200065 0.112708636
0.039674256 -0.049772657 -0.04425577 -0.16029182 -0.2235956 0.028118374 -0.14705898 0.028596349
0.10781411 -0.096046686 0.06667334 0.14684659 0.2415146 0.03134354 0.046709545 -0.012113812
-0.034922957 -0.022885766 0.021246094 -0.04747015 -0.016322175 -0.05066353 -0.062496524 0.005252284
0.0043816124 0.03139124 -0.21014956 0.0026687444 -0.019491205 -0.111226596 0.032832332 0.07187184
-0.083566815 0.0015489678 -0.13968877 0.1160118 0.060897082 -0.13790402 -0.022877092 0.14400917
0.17392789 0.03316151 -0.029716747 0.0034087442 0.004595799 -0.026232004 -0.023612987 -0.08709476
-0.17989098 -0.20171425 -0.2665855 -0.11831881 -0.17695576 0.017929474 0.0559783 -0.109033614
-0.05073691 -0.051523317 -0.007265284 0.32375938 0.10040431 0.16056934 0.09395997 0.102224104
0.13732497 0.080772415 -0.02968105 0.18044704 0.2512603 0.051160242 -0.014633301 -0.011268222
-0.014570872 -0.02412618 -0.021554986 -0.112889625 -0.14095546 -0.050603736 -0.13415475 -0.022762394
0.04438927 0.16875905 -0.13816775 0.029438525 -0.03174157 0.14117235 -0.011688633 -0.028749049
-0.013696815 -0.04373291 0.07875629 -0.14490288 -0.17419139 -0.058299426 -0.10664744 -0.042228293
0.29147395 0.06931119 0.041074205 -0.016386598 -0.010418034 -0.030098595 -0.039202012 -0.13804041
00000000: 72dd f13c 3023 d8bb 8559 0fbd 3c59 283c
00000010: 4d72 073d fe56 fe3c e016 10bd d9ab 033d
00000020: b895 313c ffb2 06bd 7f70 0c3d 50a6 013b
00000030: c481 d33b b916 8c3c 023b 2e3c f4e1 aebc
00000040: 8086 a73c 78f4 ce3c 4ed1 96bc 2461 8d3c
00000050: b017 d0bb 9ebc bdbc aef5 60bc c000 89bb
00000060: 45f0 a0bc 2e75 a43c de4d ac3c aaa7 8abc
00000070: f09e b5bc 00a0 d536 e019 003c d042 af3c
00000080: c84f 99bb a51e bbbc 76c1 cb3b a239 323d
00000090: 8de2 593d 1b51 353d 1c71 983c 8a96 61bb
000000a0: 68a6 b93c 0649 a63b cc4f 413d 4a53 8ebb
000000b0: 4fe9 57bd b0ac 483c 82bc 2e3c b298 d33c
000000c0: f195 a53c 4caa efbc ad4d a6bc 63b2 143d
000000d0: 24b1 913c 50d0 8d3c e023 6cbc 88ab 09bd
000000e0: 7817 6ebc aa64 b5bc 05c4 5fbc 45f9 023d
000000f0: 4a3a e03c 0980 cf3c 8da9 97bb d1f4 ac3d
00000100: 38eb 8e3d 37e3 1c3d 3a6d cf3d 6023 9d3c
00000110: 9843 653d 2e6c 9c3d 951d 183d 39aa 693d
00000120: b34f b83c 2168 033d 3794 883d de9e c53d
00000130: ec6e a23d 957a 893d 963f 193d cb42 5b3c
00000140: 92c5 10bd c7a0 65bd e89b f93b b2c9 1bbc
00000150: 481f a53b a04a 133c 8581 f4bc f1cf bf3c
00000160: 5a82 153d 5f5d f8bc 879f 853d 793a ed3d
00000170: c4e3 ec3d 93e1 243d 09e6 1c3d a9ee 563c
00000180: 5c74 f3bd badc 49bd e423 94bd c372 9ab9
00000190: 43fe d1bd 472a 7c3d eb0d 783e a04e 2c3e
000001a0: ed50 583d ee69 053e fcd0 303e edf7 dc3d
000001b0: beeb 8dbc 71e8 91bd 29da 93bc 5377 ddbc
000001c0: 860e 12bd 99bc c4bc 686c 9d3c 1bb1 133c
000001d0: 92c2 f1bb a8c8 2f3d a34f 20bd 408c 0cbd
000001e0: 4720 28bd 518a fbbd 6b38 25be e53c 8cbd
000001f0: df23 d7bd 3277 69bd a88f 13be a908 11be
00000200: 5d6a e4bc 18c0 8c3d 3eec 103d ff0d 043e
00000210: 89a1 3f3e 9f5b 273e c448 953e 6a3c 993e
00000220: 9b01 a43d 4c82 1ebd 7271 2c3c 2b39 253d
00000230: 90d5 223c 4118 f0bc 2198 613c fc43 80bc
00000240: d65c f9bc bbba 28bd bcf1 bcbd 9e22 88bd
00000250: 4915 603c 670e 16bd 1475 93bd c9d3 e63d
00000260: 7981 223d 6ade 4bbd 8a45 35bd 8a23 24be
00000270: 3ff6 64be 8158 e63c a196 16be e442 ea3c
00000280: a5cd dc3d 20b4 c4bd 088c 883d f45e 163e
00000290: 9a4f 773e 1562 003d 8252 3f3d 0379 46bc
000002a0: 600b 0fbd ee7a bbbc 4a0c ae3c 0f70 42bd
000002b0: 15b6 85bc 9084 4fbd 5bfc 7fbd 5a1b ac3b
000002c0: a193 8f3b 1a94 003d 7231 57be 1ae6 2e3b
000002d0: 05ac 9fbc c5ca e3bd 327b 063d 8b31 933d
000002e0: 1425 abbd bc06 cb3a 930a 0fbe 9897 ed3d
000002f0: 386f 793d b636 0dbe bd68 bbbc 2477 133e
00000300: 271a 323e 5dd4 073d 8970 f3bc 3d65 5f3b
00000310: 5b98 963b 80e4 d6bc 0670 c1bc bd5e b2bd
00000320: 5735 38be 2e8e 4ebe e57d 88be 2251 f2bd
00000330: e433 35be d5e0 923c 8049 653d 044d dfbd
00000340: 82d1 4fbd 1d0a 53bd 9f11 eebb cac3 a53e
00000350: c6a0 cd3d 4a6c 243e 166e c03d df5a d13d
00000360: eb9e 0c3e 026c a53d ac25 f3bc 1cc7 383e
00000370: 31a5 803e 678d 513d 83c0 6fbc 599e 38bc
00000380: abba 6ebc 44a4 c5bc 1594 b0bc ad32 e7bd
00000390: a156 10be dd45 4fbd dd5f 09be 3378 babc
000003a0: 86d1 353d 2ccf 2c3e d97b 0dbe 1029 f13c
000003b0: 7303 02bd 7c8f 103e ae81 3fbc 2083 ebbc
000003c0: 9b68 60bc 4821 33bd fa4a a13d 6c61 14be
000003d0: 3a5f 32be 61cb 6ebd f969 dabd 93f7 2cbd
000003e0: 133c 953e 06f3 8d3d 6d3d 283d 303d 86bc
000003f0: 67b0 2abc 5491 f6bc 4a92 20bd 775a 0dbe

bias f4 [10]
0.39549017 0.82555336 -0.2762797 -0.7525284 -0.2926449 0.82684684 0.5298636 0.16102573
1.1235123 -0.059143122
00000000: b07d ca3e 7757 533f 8874 8dbe b4a5 40bf
00000010: 8dd5 95be 3cac 533f 24a5 073f eee3 243e
00000020: 40cf 8f3f 0f40 72bd

weight f4 [10, 10]
-0.4604458 -0.06749023 0.6146525 -1.2433606 -0.6336354 -0.01042388 -0.087147936 0.047644213
-0.043094866 1.4535013 0.3321517 -1.0685366 -1.9051446 0.37052318 1.1675558 0.3671654
-0.8865851 0.17771065 0.89146984 -0.8275816 -1.4281249 -0.23940639 0.7488629 -0.23608917
0.60340667 -0.33985177 0.861996 0.544605 0.74993527 0.16614713 -0.63175684 0.50737846
-0.09946999 1.1185286 0.6847998 -0.75459385 0.30474222 0.008324371 0.29418406 0.24013254
0.49585003 0.08975305 0.6566544 0.69779027 -0.6925963 0.2879549 0.94091463 -2.0699172
-0.4393081 -0.93316925 -0.113622054 -0.43282983 -0.1537212 0.992618 -0.9567597 1.0373893
0.4235812 1.4090302 -0.11739481 0.4223536 0.6738155 -0.710165 0.34632096 -1.2504964
-0.9258289 -1.137508 -0.7459629 0.7223608 1.0775437 0.3296405 0.36788046 1.4602371
-0.432554 -1.166032 0.08912554 0.85698336 -0.58294106 0.41402578 -0.111559145 -1.0769719
0.80168444 -0.7686755 0.41916135 0.49812877 0.46106443 0.020876225 -0.98387986 -0.20996507
-0.7410038 0.4606367 0.53547144 0.6627375 -0.059702232 0.45671374 0.29524243 -0.39418167
0.76720464 -0.94573534 -1.9436 -0.1361472
00000000: 8dbf ebbe 5138 8abd de59 1d3f 7126 9fbf
00000010: ee35 22bf ecc8 2abc 9e7a b2bd 9426 433d
00000020: 3e84 30bd 550c ba3f ca0f aa3e cfc5 88bf
00000030: c7db f3bf 37b5 bd3e 7872 953f 1afd bb3e
00000040: 3ef7 62bf c8f9 353e 5e37 643f 63dc 53bf
00000050: cccc b6bf f326 75be 7bb5 3f3f 5cc1 71be
00000060: dc78 1a3f 0d01 aebe c5ab 5c3f 3c6b 0b3f
00000070: c2fb 3f3f 7922 2a3e d1ba 21bf 8ee3 013f
00000080: ecb6 cbbd f22b 8f3f 0a4f 2f3f 102d 41bf
00000090: 2c07 9c3e f162 083c 4b9f 963e 4ee5 753e
000000a0: 0ee0 fd3e 72d0 b73d 811a 283f 62a2 323f
000000b0: fe4d 31bf d36e 933e c8df 703f 8679 04c0
000000c0: feec e0be 2ee4 6ebf aeb2 e8bd df9b ddbe
000000d0: 1769 1dbe 371c 7e3f 34ee 74bf 2cc9 843f
000000e0: a3df d83e 1a5b b43f b16c f0bd bb3e d83e
000000f0: 2c7f 2c3f 60cd 35bf fb50 b13e 4410 a0bf
00000100: 1f03 6dbf dd99 91bf 6df7 3ebf a3ec 383f
00000110: f4ec 893f a4c6 a83e d45a bc3e 0de9 ba3f
00000120: b877 ddbe 8940 95bf 7387 b63d 4363 5b3f
00000130: a03b 15bf 30fb d33e 1f79 e4bd 37da 89bf
00000140: 313b 4d3f ebc7 44bf 519c d63e bc0a ff3e
00000150: a310 ec3e 9e04 ab3c 8ddf 7bbf 1501 57be
00000160: 6db2 3dbf 93d8 eb3e a814 093f 2aa9 293f
00000170: 548a 74bd 62d6 e93e 042a 973e 2ed2 c9be
00000180: 8667 443f b61b 72bf e3c7 f8bf 2c6a 0bbe

bias f4 [10]
-0.15251826 0.4070344 -0.37747493 -0.35239378 0.18032382 0.6345969 0.08641002 -0.1953365
-0.5422175 0.26039195
00000000: bf2d 1cbe d066 d03e 6544 c1be f56c b4be
00000010: cfa6 383e f174 223f bdf7 b03d 4b06 48be
00000020: c4ce 0abf 1852 853e
